…
<pre class=""lang-py prettyprint-override""><code>from sklearn.feature_extraction.text import CountVectorizer  

#instantiate vectorizer
vectorizer=CountVectorizer()   

#Document creation 
document1='this is a sunny day';document2= 'today is a very very very pleasant day and we have fun fun fun';document3= 'this is an amazin experience'

#list 
list_of_words= [document1,document2,document3]

#bag of words
bag_of_words = vectorizer.fit(list_of_words)

#verify vocabulary of repeated word 
print (vectorizer.vocabulary_.get('very')) 

print (vectorizer.vocabulary_.get('fun'))

#transform
bag_of_words=vectorizer.transform(list_of_words)

print(bag_of_words)&gt;&gt;&gt;&gt;
(0, 3) 1 (0, 7) 1 (0, 9) 1 (0, 10) 1 (1, 2) 1 (1, 3) 1 (1, 5) 3 (1, 6) 1 (1, 7) 1 (1, 8) 1 (1, 11) 1 (1, 12) 3 (1, 13) 1 (2, 0) 1 (2, 1) 1 (2, 4) 1 (2, 7) 1 (2, 10) 1
</code></pre>
","python, scikit-learn, nlp, corpus, countvectorizer",
Low score and wrong answer for Flan-T5-XXL &quot;question-answering&quot; task,"<p>I'm trying to run Flan-T5-XXL model for a &quot;question-answering&quot; task.
Here's how I loaded and executed the model:</p>
<pre><code>model_id = &quot;~/Downloads/test_LLM/flan-t5-xxl&quot;
tokenizer = AutoTokenizer.from_pretrained(model_id)
model = AutoModelForQuestionAnswering.from_pretrained(model_id, return_dict=False).to(DEVICE)
…
lstm_model.add(Embedding(input_dim = 9000, output_dim = 128,embeddings_initializer= 'uniform'))
lstm_model.add(LSTM(64, return_sequences = True, recurrent_dropout = 0.25, dropout = 0.25))
lstm_model.add(LSTM(64))
lstm_model.add(Dense(32, activation='relu'))
lstm_model.add(Dense(1, activation = 'softmax'))
lstm_model.compile(loss='binary_crossentropy', optimizer='adam', metrics=['accuracy'])
lstm_model.build()
lstm_model.summary()
</code></pre>
<p>The model seems correct:</p>
<p>┃ Layer (type)                    ┃ Output Shape           ┃       Param # ┃
┡━━━━━━━━━━━━━━━━━━━━━━━━━━━━━━━━━╇━━━━━━━━━━━━━━━━━━━━━━━━╇━━━━━━━━━━━━━━━┩
│ text_vectorization_25           │ (None, 50)             │             0 │
│ (TextVectorization)             │                        │               │
├─────────────────────────────────┼────────────────────────┼───────────────┤
│ embedding_26 (Embedding)        │ (None, 50, 128)        │     1,152,000 │
├─────────────────────────────────┼────────────────────────┼───────────────┤
│ lstm_49 (LSTM)                  │ (None, 50, 64)         │        49,408 │
├─────────────────────────────────┼────────────────────────┼───────────────┤
│ lstm_50 (LSTM)                  │ (None, 64)             │        33,024 │
├─────────────────────────────────┼────────────────────────┼───────────────┤
│ dense_49 (Dense)                │ (None, 32)             │         2,080 │
├─────────────────────────────────┼────────────────────────┼───────────────┤
│ dense_50 (Dense)                │ (None, 1)              │            33 │</p>
<p>Call model fit:</p>
<pre><code>lstm_model.fit(text_data, labels, epochs=10)
</code></pre>
<p>Error:</p>
<p>ValueError: Unrecognized data type: x=['The movie was fantastic! I really enjoyed it and would watch it again.', &quot;I didn't like the movie. The plot had too many holes.&quot;, &quot;One of the best movies I've seen this year. Highly recommended!&quot;, &quot;The acting was poor and the storyline was boring. I wouldn't recommend it.&quot;] (of type &lt;class 'list'&gt;)</p>
…
  [0.69230769]
  [0.76923077]
  [0.41025641]
  [0.79487179]]]
index =  1
result =   

==================
x[:10] :  [[[0.71794872]
  [0.69230769]
  [0.66666667]
  [0.02564103]
  [0.8974359 ]
  [0.69230769]
  [0.76923077]
  [0.41025641]
  [0.79487179]
  [0.17948718]]]
index =  1
result =   

Done.
[/output]
</code></pre>
<pre><code>model.summary()

Model: &quot;LSTM_Model&quot;
_________________________________________________________________
 Layer (type)                Output Shape              Param #   
=================================================================
 embedding (Embedding)       (None, 100, 50)           1950      
                                                                 
 conv1d (Conv1D)             (None, 96, 128)           32128     
                                                                 
 max_pooling1d (MaxPooling1  (None, 24, 128)           0         
 D)                                                              
                                                                 
 lstm (LSTM)                 (None, 24, 256)           394240    
                                                                 
 dropout (Dropout)           (None, 24, 256)           0         
                                                                 
 lstm_1 (LSTM)               (None, 256)               525312    
                                                                 
 dropout_1 (Dropout)         (None, 256)               0         
                                                                 
 dense (Dense)               (None, 39)                10023     
                                                                 
=================================================================
Total params: 963653 (3.68 MB)
Trainable params: 963653 (3.68 MB)
Non-trainable params: 0 (0.00 Byte)
_________________________________________________________________


  [1]: https://i.sstatic.net/QSWz3.jpg
  [2]: https://s3.amazonaws.com/text-datasets/nietzsche.txt
…
